"backend: tensorflow\nclass_name: Sequential\nconfig:\n  layers:\n  - class_name:\
  \ Dense\n    config:\n      activation: relu\n      activity_regularizer: null\n\
  \      batch_input_shape: !!python/tuple\n      - null\n      - 78\n      bias_constraint:\
  \ null\n      bias_initializer:\n        class_name: Zeros\n        config: {}\n\
  \      bias_regularizer: null\n      dtype: float32\n      kernel_constraint: null\n\
  \      kernel_initializer:\n        class_name: RandomNormal\n        config:\n\
  \          mean: 0.0\n          seed: null\n          stddev: 0.05\n      kernel_regularizer:\
  \ null\n      name: dense_1\n      trainable: true\n      units: 256\n      use_bias:\
  \ true\n  - class_name: Dense\n    config:\n      activation: relu\n      activity_regularizer:\
  \ null\n      bias_constraint: null\n      bias_initializer:\n        class_name:\
  \ Zeros\n        config: {}\n      bias_regularizer: null\n      kernel_constraint:\
  \ null\n      kernel_initializer:\n        class_name: RandomNormal\n        config:\n\
  \          mean: 0.0\n          seed: null\n          stddev: 0.05\n      kernel_regularizer:\
  \ null\n      name: dense_2\n      trainable: true\n      units: 256\n      use_bias:\
  \ true\n  - class_name: Dense\n    config:\n      activation: relu\n      activity_regularizer:\
  \ null\n      bias_constraint: null\n      bias_initializer:\n        class_name:\
  \ Zeros\n        config: {}\n      bias_regularizer: null\n      kernel_constraint:\
  \ null\n      kernel_initializer:\n        class_name: RandomNormal\n        config:\n\
  \          mean: 0.0\n          seed: null\n          stddev: 0.05\n      kernel_regularizer:\
  \ null\n      name: dense_3\n      trainable: true\n      units: 256\n      use_bias:\
  \ true\n  - class_name: Dense\n    config:\n      activation: relu\n      activity_regularizer:\
  \ null\n      bias_constraint: null\n      bias_initializer:\n        class_name:\
  \ Zeros\n        config: {}\n      bias_regularizer: null\n      kernel_constraint:\
  \ null\n      kernel_initializer:\n        class_name: RandomNormal\n        config:\n\
  \          mean: 0.0\n          seed: null\n          stddev: 0.05\n      kernel_regularizer:\
  \ null\n      name: dense_4\n      trainable: true\n      units: 256\n      use_bias:\
  \ true\n  - class_name: Dense\n    config:\n      activation: relu\n      activity_regularizer:\
  \ null\n      bias_constraint: null\n      bias_initializer:\n        class_name:\
  \ Zeros\n        config: {}\n      bias_regularizer: null\n      kernel_constraint:\
  \ null\n      kernel_initializer:\n        class_name: RandomNormal\n        config:\n\
  \          mean: 0.0\n          seed: null\n          stddev: 0.05\n      kernel_regularizer:\
  \ null\n      name: dense_5\n      trainable: true\n      units: 256\n      use_bias:\
  \ true\n  - class_name: Dense\n    config:\n      activation: relu\n      activity_regularizer:\
  \ null\n      bias_constraint: null\n      bias_initializer:\n        class_name:\
  \ Zeros\n        config: {}\n      bias_regularizer: null\n      kernel_constraint:\
  \ null\n      kernel_initializer:\n        class_name: RandomNormal\n        config:\n\
  \          mean: 0.0\n          seed: null\n          stddev: 0.05\n      kernel_regularizer:\
  \ null\n      name: dense_6\n      trainable: true\n      units: 256\n      use_bias:\
  \ true\n  - class_name: Dense\n    config:\n      activation: relu\n      activity_regularizer:\
  \ null\n      bias_constraint: null\n      bias_initializer:\n        class_name:\
  \ Zeros\n        config: {}\n      bias_regularizer: null\n      kernel_constraint:\
  \ null\n      kernel_initializer:\n        class_name: RandomNormal\n        config:\n\
  \          mean: 0.0\n          seed: null\n          stddev: 0.05\n      kernel_regularizer:\
  \ null\n      name: dense_7\n      trainable: true\n      units: 256\n      use_bias:\
  \ true\n  - class_name: Dense\n    config:\n      activation: relu\n      activity_regularizer:\
  \ null\n      bias_constraint: null\n      bias_initializer:\n        class_name:\
  \ Zeros\n        config: {}\n      bias_regularizer: null\n      kernel_constraint:\
  \ null\n      kernel_initializer:\n        class_name: RandomNormal\n        config:\n\
  \          mean: 0.0\n          seed: null\n          stddev: 0.05\n      kernel_regularizer:\
  \ null\n      name: dense_8\n      trainable: true\n      units: 256\n      use_bias:\
  \ true\n  - class_name: Dense\n    config:\n      activation: relu\n      activity_regularizer:\
  \ null\n      bias_constraint: null\n      bias_initializer:\n        class_name:\
  \ Zeros\n        config: {}\n      bias_regularizer: null\n      kernel_constraint:\
  \ null\n      kernel_initializer:\n        class_name: RandomNormal\n        config:\n\
  \          mean: 0.0\n          seed: null\n          stddev: 0.05\n      kernel_regularizer:\
  \ null\n      name: dense_9\n      trainable: true\n      units: 256\n      use_bias:\
  \ true\n  - class_name: Dense\n    config:\n      activation: relu\n      activity_regularizer:\
  \ null\n      bias_constraint: null\n      bias_initializer:\n        class_name:\
  \ Zeros\n        config: {}\n      bias_regularizer: null\n      kernel_constraint:\
  \ null\n      kernel_initializer:\n        class_name: RandomNormal\n        config:\n\
  \          mean: 0.0\n          seed: null\n          stddev: 0.05\n      kernel_regularizer:\
  \ null\n      name: dense_10\n      trainable: true\n      units: 256\n      use_bias:\
  \ true\n  - class_name: Dense\n    config:\n      activation: linear\n      activity_regularizer:\
  \ null\n      bias_constraint: null\n      bias_initializer:\n        class_name:\
  \ Zeros\n        config: {}\n      bias_regularizer: null\n      kernel_constraint:\
  \ null\n      kernel_initializer:\n        class_name: RandomNormal\n        config:\n\
  \          mean: 0.0\n          seed: null\n          stddev: 0.05\n      kernel_regularizer:\
  \ null\n      name: dense_11\n      trainable: true\n      units: 1\n      use_bias:\
  \ true\n  name: sequential_1\nkeras_version: 2.2.4\n"
